…
Namespace(name=None, dataset='BTW17', device=0, seed=0, hops=5, pe_dim=5, hidden_dim=128, ffn_dim=64, n_layers=1, n_heads=8, dropout=0.1, attention_dropout=0.1, readout='mean', alpha=0.1, batch_size=7721, group_epoch_gap=20, epochs=100, tot_updates=1000, warmup_updates=400, peak_lr=0.001, end_lr=0.0001, weight_decay=1e-05, patience=50, save_path='./model/', model_name='BTW17', embedding_path='./pretrain_result/')
/root/Cohesion_Evaluation/Input_Datasets/TransZero_LS_GS_Dataset/BTW17.pt
Loading....
<class 'torch.Tensor'> <class 'torch.Tensor'>
feature process time: 35.2271s
starting transformer to coo
start mini batch processing
start mini batch: adj of each chunks
start mini batch: minus adj of each chunks
start mini batch: back to torch coo adj
start mini batch: back to torch coo minus adj
7721 7721
adj process time: 16.3615s
PretrainModel(
  (Linear1): Linear(in_features=6, out_features=128, bias=True)
  (encoder): TransformerBlock(
    (att_embeddings_nope): Linear(in_features=6, out_features=128, bias=True)
    (layers): ModuleList(
      (0): EncoderLayer(
        (self_attention_norm): LayerNorm((128,), eps=1e-05, elementwise_affine=True)
        (self_attention): MultiHeadAttention(
          (linear_q): Linear(in_features=128, out_features=128, bias=True)
          (linear_k): Linear(in_features=128, out_features=128, bias=True)
          (linear_v): Linear(in_features=128, out_features=128, bias=True)
          (att_dropout): Dropout(p=0.1, inplace=False)
          (output_layer): Linear(in_features=128, out_features=128, bias=True)
        )
        (self_attention_dropout): Dropout(p=0.1, inplace=False)
        (ffn_norm): LayerNorm((128,), eps=1e-05, elementwise_affine=True)
        (ffn): FeedForwardNetwork(
          (layer1): Linear(in_features=128, out_features=256, bias=True)
          (gelu): GELU(approximate='none')
          (layer2): Linear(in_features=256, out_features=128, bias=True)
        )
        (ffn_dropout): Dropout(p=0.1, inplace=False)
      )
    )
    (final_ln): LayerNorm((128,), eps=1e-05, elementwise_affine=True)
    (out_proj): Linear(in_features=128, out_features=64, bias=True)
    (attn_layer): Linear(in_features=256, out_features=1, bias=True)
  )
  (marginloss): MarginRankingLoss()
)
total params: 143042
starting training...
Epoch: 0001 loss_train: 13.7788
Epoch: 0002 loss_train: 13.7788
Epoch: 0003 loss_train: 13.7786
Epoch: 0004 loss_train: 13.7777
Epoch: 0005 loss_train: 13.7770
Epoch: 0006 loss_train: 13.7770
Epoch: 0007 loss_train: 13.7754
Epoch: 0008 loss_train: 13.7745
Epoch: 0009 loss_train: 13.7727
…
